…
num_batch

18

num_batch

18

Run 1/1

tensorboard path:

./tfboard/seizure/09_20_17_52

N:

127

True

adj_fix shape:

torch.Size([127, 127])

adj_fix:

Parameter containing:
tensor([[0., 0., 0.,  ..., 0., 0., 0.],
        [0., 0., 0.,  ..., 0., 0., 0.],
        [0., 0., 0.,  ..., 0., 0., 1.],
        ...,
        [0., 0., 0.,  ..., 0., 0., 0.],
        [0., 0., 0.,  ..., 0., 0., 1.],
        [0., 0., 1.,  ..., 0., 1., 0.]], device='cuda:0', requires_grad=True)

[DLOG] CNNEncoder2d out len: 30 8

[DLOG] CNNEncoder2d struct: CNN2d(
  (b1): Sequential(
    (0): Conv2d(256, 256, kernel_size=(1, 1), stride=(1, 1))
    (1): ReLU()
    (2): Conv2d(256, 256, kernel_size=(3, 3), stride=(1, 1))
    (3): ReLU()
    (4): BatchNorm2d(256, eps=1e-05, momentum=0.1, affine=True, track_running_stats=True)
    (5): Dropout(p=0.4, inplace=False)
  )
  (bx): ModuleList(
    (0): Sequential(
      (0): Conv2d(256, 512, kernel_size=(1, 1), stride=(1, 1))
      (1): ReLU()
      (2): Conv2d(512, 512, kernel_size=(3, 3), stride=(2, 2))
      (3): ReLU()
      (4): BatchNorm2d(512, eps=1e-05, momentum=0.1, affine=True, track_running_stats=True)
      (5): Dropout(p=0.4, inplace=False)
    )
  )
  (bn): Sequential(
    (0): Conv2d(512, 256, kernel_size=(1, 1), stride=(1, 1))
    (1): ReLU()
    (2): Conv2d(256, 256, kernel_size=(3, 3), stride=(2, 2))
    (3): ReLU()
    (4): BatchNorm2d(256, eps=1e-05, momentum=0.1, affine=True, track_running_stats=True)
    (5): Dropout(p=0.4, inplace=False)
  )
  (l1): Linear(in_features=61440, out_features=32, bias=True)
)

[DLOG] Predictor in channel: 48

[DLOG] -------- encoder: -----------
 TemporalTransformerEncoder(
  (input_proj): Linear(in_features=75, out_features=256, bias=True)
  (transformer): TransformerEncoder(
    (layers): ModuleList(
      (0-1): 2 x TransformerEncoderLayer(
        (self_attn): MultiheadAttention(
          (out_proj): NonDynamicallyQuantizableLinear(in_features=256, out_features=256, bias=True)
        )
        (linear1): Linear(in_features=256, out_features=512, bias=True)
        (dropout): Dropout(p=0.4, inplace=False)
        (linear2): Linear(in_features=512, out_features=256, bias=True)
        (norm1): LayerNorm((256,), eps=1e-05, elementwise_affine=True)
        (norm2): LayerNorm((256,), eps=1e-05, elementwise_affine=True)
        (dropout1): Dropout(p=0.4, inplace=False)
        (dropout2): Dropout(p=0.4, inplace=False)
      )
    )
  )
)

[DLOG] -------- decoder: -----------
 SpatialDecoder(
  (gnn_decoder): GNNDecoder(
    (gnns): ModuleList(
      (0): GraphConv(
        (lin): Linear(in_features=256, out_features=32, bias=True)
        (dropout): Dropout(p=0.4, inplace=False)
      )
      (1): GraphConv(
        (lin): Linear(in_features=32, out_features=16, bias=True)
        (dropout): Dropout(p=0.4, inplace=False)
      )
    )
    (g_pooling): GateGraphPooling()
  )
  (cnn_decoder): CNN2d(
    (b1): Sequential(
      (0): Conv2d(256, 256, kernel_size=(1, 1), stride=(1, 1))
      (1): ReLU()
      (2): Conv2d(256, 256, kernel_size=(3, 3), stride=(1, 1))
      (3): ReLU()
      (4): BatchNorm2d(256, eps=1e-05, momentum=0.1, affine=True, track_running_stats=True)
      (5): Dropout(p=0.4, inplace=False)
    )
    (bx): ModuleList(
      (0): Sequential(
        (0): Conv2d(256, 512, kernel_size=(1, 1), stride=(1, 1))
        (1): ReLU()
        (2): Conv2d(512, 512, kernel_size=(3, 3), stride=(2, 2))
        (3): ReLU()
        (4): BatchNorm2d(512, eps=1e-05, momentum=0.1, affine=True, track_running_stats=True)
        (5): Dropout(p=0.4, inplace=False)
      )
    )
    (bn): Sequential(
      (0): Conv2d(512, 256, kernel_size=(1, 1), stride=(1, 1))
      (1): ReLU()
      (2): Conv2d(256, 256, kernel_size=(3, 3), stride=(2, 2))
      (3): ReLU()
      (4): BatchNorm2d(256, eps=1e-05, momentum=0.1, affine=True, track_running_stats=True)
      (5): Dropout(p=0.4, inplace=False)
    )
    (l1): Linear(in_features=61440, out_features=32, bias=True)
  )
)

weights:

tensor([0.8199, 0.5800, 0.6001], device='cuda:0')

[DLOG] ------------ Args Saved! -------------

[DLOG] args is : by DLOG: Namespace(seed=2004, server_tag='seizure', out_middle_features=False, debug=False, task='regression', binary=False, dataset='TUH', load_dataset=True, data='4', data_path='P:\\mff_pkl\\selected_mff\\127c
…
num_batch

18

num_batch

18

Run 1/1

tensorboard path:

./tfboard/seizure/09_20_21_22

N:

127

True

adj_fix shape:

torch.Size([127, 127])

adj_fix:

Parameter containing:
tensor([[0., 0., 0.,  ..., 0., 0., 0.],
        [0., 0., 0.,  ..., 0., 0., 0.],
        [0., 0., 0.,  ..., 0., 0., 1.],
        ...,
        [0., 0., 0.,  ..., 0., 0., 0.],
        [0., 0., 0.,  ..., 0., 0., 1.],
        [0., 0., 1.,  ..., 0., 1., 0.]], device='cuda:0', requires_grad=True)

[DLOG] CNNEncoder2d out len: 30 8

[DLOG] CNNEncoder2d struct: CNN2d(
  (b1): Sequential(
    (0): Conv2d(512, 256, kernel_size=(1, 1), stride=(1, 1))
    (1): ReLU()
    (2): Conv2d(256, 256, kernel_size=(3, 3), stride=(1, 1))
    (3): ReLU()
    (4): BatchNorm2d(256, eps=1e-05, momentum=0.1, affine=True, track_running_stats=True)
    (5): Dropout(p=0.3, inplace=False)
  )
  (bx): ModuleList(
    (0): Sequential(
      (0): Conv2d(256, 512, kernel_size=(1, 1), stride=(1, 1))
      (1): ReLU()
      (2): Conv2d(512, 512, kernel_size=(3, 3), stride=(2, 2))
      (3): ReLU()
      (4): BatchNorm2d(512, eps=1e-05, momentum=0.1, affine=True, track_running_stats=True)
      (5): Dropout(p=0.3, inplace=False)
    )
  )
  (bn): Sequential(
    (0): Conv2d(512, 256, kernel_size=(1, 1), stride=(1, 1))
    (1): ReLU()
    (2): Conv2d(256, 256, kernel_size=(3, 3), stride=(2, 2))
    (3): ReLU()
    (4): BatchNorm2d(256, eps=1e-05, momentum=0.1, affine=True, track_running_stats=True)
    (5): Dropout(p=0.3, inplace=False)
  )
  (l1): Linear(in_features=61440, out_features=32, bias=True)
)

[DLOG] Predictor in channel: 48

[DLOG] -------- encoder: -----------
 RNNEncoder(
  (rnn): GRU(75, 256, num_layers=2, batch_first=True, bidirectional=True)
)

[DLOG] -------- decoder: -----------
 SpatialDecoder(
  (gnn_decoder): GNNDecoder(
    (gnns): ModuleList(
      (0): GraphConv(
        (lin): Linear(in_features=512, out_features=32, bias=True)
        (dropout): Dropout(p=0.3, inplace=False)
      )
      (1): GraphConv(
        (lin): Linear(in_features=32, out_features=16, bias=True)
        (dropout): Dropout(p=0.3, inplace=False)
      )
    )
    (g_pooling): GateGraphPooling()
  )
  (cnn_decoder): CNN2d(
    (b1): Sequential(
      (0): Conv2d(512, 256, kernel_size=(1, 1), stride=(1, 1))
      (1): ReLU()
      (2): Conv2d(256, 256, kernel_size=(3, 3), stride=(1, 1))
      (3): ReLU()
      (4): BatchNorm2d(256, eps=1e-05, momentum=0.1, affine=True, track_running_stats=True)
      (5): Dropout(p=0.3, inplace=False)
    )
    (bx): ModuleList(
      (0): Sequential(
        (0): Conv2d(256, 512, kernel_size=(1, 1), stride=(1, 1))
        (1): ReLU()
        (2): Conv2d(512, 512, kernel_size=(3, 3), stride=(2, 2))
        (3): ReLU()
        (4): BatchNorm2d(512, eps=1e-05, momentum=0.1, affine=True, track_running_stats=True)
        (5): Dropout(p=0.3, inplace=False)
      )
    )
    (bn): Sequential(
      (0): Conv2d(512, 256, kernel_size=(1, 1), stride=(1, 1))
      (1): ReLU()
      (2): Conv2d(256, 256, kernel_size=(3, 3), stride=(2, 2))
      (3): ReLU()
      (4): BatchNorm2d(256, eps=1e-05, momentum=0.1, affine=True, track_running_stats=True)
      (5): Dropout(p=0.3, inplace=False)
    )
    (l1): Linear(in_features=61440, out_features=32, bias=True)
  )
)

weights:

tensor([0.8199, 0.5800, 0.6001], device='cuda:0')

epoch:

0

train_loss    0.160856
val_loss      0.110910
dtype: float64

update best model, epoch:

0

train_loss    0.160856
val_loss      0.110910
dtype: float64

update best model, epoch:

1

train_loss    0.055037
val_loss      0.035240
dtype: float64
…
